manual seed: 1
torch.Size([64, 512])
torch.Size([64, 512])
torch.Size([16, 512])
manual seed: 1
DataParallel(
  (module): LPE(
    (encoder): ResNet(
      (layer1): Sequential(
        (0): BasicBlock(
          (conv1): Conv2d(3, 64, kernel_size=(3, 3), stride=(1, 1), padding=(1, 1), bias=False)
          (bn1): BatchNorm2d(64, eps=1e-05, momentum=0.1, affine=True, track_running_stats=True)
          (relu): LeakyReLU(negative_slope=0.1)
          (conv2): Conv2d(64, 64, kernel_size=(3, 3), stride=(1, 1), padding=(1, 1), bias=False)
          (bn2): BatchNorm2d(64, eps=1e-05, momentum=0.1, affine=True, track_running_stats=True)
          (conv3): Conv2d(64, 64, kernel_size=(3, 3), stride=(1, 1), padding=(1, 1), bias=False)
          (bn3): BatchNorm2d(64, eps=1e-05, momentum=0.1, affine=True, track_running_stats=True)
          (maxpool): MaxPool2d(kernel_size=2, stride=2, padding=0, dilation=1, ceil_mode=False)
          (downsample): Sequential(
            (0): Conv2d(3, 64, kernel_size=(1, 1), stride=(1, 1), bias=False)
            (1): BatchNorm2d(64, eps=1e-05, momentum=0.1, affine=True, track_running_stats=True)
          )
        )
      )
      (layer2): Sequential(
        (0): BasicBlock(
          (conv1): Conv2d(64, 160, kernel_size=(3, 3), stride=(1, 1), padding=(1, 1), bias=False)
          (bn1): BatchNorm2d(160, eps=1e-05, momentum=0.1, affine=True, track_running_stats=True)
          (relu): LeakyReLU(negative_slope=0.1)
          (conv2): Conv2d(160, 160, kernel_size=(3, 3), stride=(1, 1), padding=(1, 1), bias=False)
          (bn2): BatchNorm2d(160, eps=1e-05, momentum=0.1, affine=True, track_running_stats=True)
          (conv3): Conv2d(160, 160, kernel_size=(3, 3), stride=(1, 1), padding=(1, 1), bias=False)
          (bn3): BatchNorm2d(160, eps=1e-05, momentum=0.1, affine=True, track_running_stats=True)
          (maxpool): MaxPool2d(kernel_size=2, stride=2, padding=0, dilation=1, ceil_mode=False)
          (downsample): Sequential(
            (0): Conv2d(64, 160, kernel_size=(1, 1), stride=(1, 1), bias=False)
            (1): BatchNorm2d(160, eps=1e-05, momentum=0.1, affine=True, track_running_stats=True)
          )
        )
      )
      (layer3): Sequential(
        (0): BasicBlock(
          (conv1): Conv2d(160, 320, kernel_size=(3, 3), stride=(1, 1), padding=(1, 1), bias=False)
          (bn1): BatchNorm2d(320, eps=1e-05, momentum=0.1, affine=True, track_running_stats=True)
          (relu): LeakyReLU(negative_slope=0.1)
          (conv2): Conv2d(320, 320, kernel_size=(3, 3), stride=(1, 1), padding=(1, 1), bias=False)
          (bn2): BatchNorm2d(320, eps=1e-05, momentum=0.1, affine=True, track_running_stats=True)
          (conv3): Conv2d(320, 320, kernel_size=(3, 3), stride=(1, 1), padding=(1, 1), bias=False)
          (bn3): BatchNorm2d(320, eps=1e-05, momentum=0.1, affine=True, track_running_stats=True)
          (maxpool): MaxPool2d(kernel_size=2, stride=2, padding=0, dilation=1, ceil_mode=False)
          (downsample): Sequential(
            (0): Conv2d(160, 320, kernel_size=(1, 1), stride=(1, 1), bias=False)
            (1): BatchNorm2d(320, eps=1e-05, momentum=0.1, affine=True, track_running_stats=True)
          )
        )
      )
      (layer4): Sequential(
        (0): BasicBlock(
          (conv1): Conv2d(320, 640, kernel_size=(3, 3), stride=(1, 1), padding=(1, 1), bias=False)
          (bn1): BatchNorm2d(640, eps=1e-05, momentum=0.1, affine=True, track_running_stats=True)
          (relu): LeakyReLU(negative_slope=0.1)
          (conv2): Conv2d(640, 640, kernel_size=(3, 3), stride=(1, 1), padding=(1, 1), bias=False)
          (bn2): BatchNorm2d(640, eps=1e-05, momentum=0.1, affine=True, track_running_stats=True)
          (conv3): Conv2d(640, 640, kernel_size=(3, 3), stride=(1, 1), padding=(1, 1), bias=False)
          (bn3): BatchNorm2d(640, eps=1e-05, momentum=0.1, affine=True, track_running_stats=True)
          (maxpool): MaxPool2d(kernel_size=2, stride=2, padding=0, dilation=1, ceil_mode=False)
          (downsample): Sequential(
            (0): Conv2d(320, 640, kernel_size=(1, 1), stride=(1, 1), bias=False)
            (1): BatchNorm2d(640, eps=1e-05, momentum=0.1, affine=True, track_running_stats=True)
          )
        )
      )
    )
    (fc): Linear(in_features=640, out_features=64, bias=True)
    (sem2attr_0): Sequential(
      (0): Linear(in_features=512, out_features=512, bias=True)
      (1): LeakyReLU(negative_slope=0.1)
      (2): Linear(in_features=512, out_features=640, bias=True)
    )
    (sem2attr_1): Sequential(
      (0): Linear(in_features=512, out_features=512, bias=True)
      (1): LeakyReLU(negative_slope=0.1)
      (2): Linear(in_features=512, out_features=640, bias=True)
    )
    (sem2attr_2): Sequential(
      (0): Linear(in_features=512, out_features=512, bias=True)
      (1): LeakyReLU(negative_slope=0.1)
      (2): Linear(in_features=512, out_features=640, bias=True)
    )
    (sem2attr_3): Sequential(
      (0): Linear(in_features=512, out_features=512, bias=True)
      (1): LeakyReLU(negative_slope=0.1)
      (2): Linear(in_features=512, out_features=640, bias=True)
    )
    (sem2attr_4): Sequential(
      (0): Linear(in_features=512, out_features=512, bias=True)
      (1): LeakyReLU(negative_slope=0.1)
      (2): Linear(in_features=512, out_features=640, bias=True)
    )
    (sem2templet_weight): Sequential(
      (0): Linear(in_features=512, out_features=256, bias=True)
      (1): LeakyReLU(negative_slope=0.1)
      (2): Linear(in_features=256, out_features=5, bias=True)
      (3): Sigmoid()
    )
    (queryLayer_0): Linear(in_features=640, out_features=640, bias=True)
    (queryLayer_1): Linear(in_features=640, out_features=640, bias=True)
    (queryLayer_2): Linear(in_features=640, out_features=640, bias=True)
    (queryLayer_3): Linear(in_features=640, out_features=640, bias=True)
    (queryLayer_4): Linear(in_features=640, out_features=640, bias=True)
  )
)
manual seed: 1
  0% 0/300 [00:00<?, ?it/s]/home/yangfengyuan/anaconda3/envs/py37torch190/lib/python3.7/site-packages/torch/nn/functional.py:718: UserWarning: Named tensors and all their associated APIs are an experimental feature and subject to change. Please do not use them for anything important until they are released as stable. (Triggered internally at  /opt/conda/conda-bld/pytorch_1623448265233/work/c10/core/TensorImpl.h:1156.)
…
